…
I1209 11:26:40.024474 16899 net.cpp:322] The NetState phase (0) differed from the phase (1) specified by a rule in layer accuracy
I1209 11:26:40.024492 16899 net.cpp:58] Initializing net from parameters: 
state {
  phase: TRAIN
  level: 0
  stage: ""
}
layer {
  name: "data"
  type: "Data"
  top: "data"
  top: "label"
  include {
    phase: TRAIN
  }
  transform_param {
    mean_file: "/data/zim021/digits-proj/DIGITS/tmp/tmpyzXVAu/20161209-112627-3556/mean.binaryproto"
  }
  data_param {
    source: "/data/zim021/digits-proj/DIGITS/tmp/tmpyzXVAu/20161209-112627-3556/train_db"
    batch_size: 10
    backend: LMDB
  }
}
layer {
  name: "hidden"
  type: "InnerProduct"
  bottom: "data"
  top: "output"
  inner_product_param {
    num_output: 3
  }
}
layer {
  name: "loss"
  type: "SoftmaxWithLoss"
  bottom: "output"
  bottom: "label"
  top: "loss"
}
I1209 11:26:40.024662 16899 layer_factory.hpp:77] Creating layer data
I1209 11:26:40.024827 16899 net.cpp:100] Creating Layer data
I1209 11:26:40.024844 16899 net.cpp:408] data -> data
I1209 11:26:40.024880 16899 net.cpp:408] data -> label
I1209 11:26:40.024905 16899 data_transformer.cpp:25] Loading mean file from: /data/zim021/digits-proj/DIGITS/tmp/tmpyzXVAu/20161209-112627-3556/mean.binaryproto
I1209 11:26:40.027544 16917 db_lmdb.cpp:35] Opened lmdb /data/zim021/digits-proj/DIGITS/tmp/tmpyzXVAu/20161209-112627-3556/train_db
I1209 11:26:40.044811 16899 data_layer.cpp:41] output data size: 10,3,10,10
I1209 11:26:40.046269 16899 net.cpp:150] Setting up data
I1209 11:26:40.046301 16899 net.cpp:157] Top shape: 10 3 10 10 (3000)
I1209 11:26:40.046358 16899 net.cpp:157] Top shape: 10 (10)
I1209 11:26:40.046367 16899 net.cpp:165] Memory required for data: 12040
I1209 11:26:40.046387 16899 layer_factory.hpp:77] Creating layer hidden
I1209 11:26:40.046412 16899 net.cpp:100] Creating Layer hidden
I1209 11:26:40.046423 16899 net.cpp:434] hidden <- data
I1209 11:26:40.046442 16899 net.cpp:408] hidden -> output
I1209 11:26:40.046627 16899 net.cpp:150] Setting up hidden
I1209 11:26:40.046639 16899 net.cpp:157] Top shape: 10 3 (30)
I1209 11:26:40.046648 16899 net.cpp:165] Memory required for data: 12160
I1209 11:26:40.046679 16899 layer_factory.hpp:77] Creating layer loss
I1209 11:26:40.046694 16899 net.cpp:100] Creating Layer loss
I1209 11:26:40.046700 16899 net.cpp:434] loss <- output
I1209 11:26:40.046706 16899 net.cpp:434] loss <- label
I1209 11:26:40.046716 16899 net.cpp:408] loss -> loss
I1209 11:26:40.046735 16899 layer_factory.hpp:77] Creating layer loss
…
I1209 11:26:40.376832 16899 net.cpp:322] The NetState phase (1) differed from the phase (0) specified by a rule in layer data
I1209 11:26:40.376845 16899 net.cpp:58] Initializing net from parameters: 
state {
  phase: TEST
}
layer {
  name: "data"
  type: "Data"
  top: "data"
  top: "label"
  include {
    phase: TEST
  }
  transform_param {
    mean_file: "/data/zim021/digits-proj/DIGITS/tmp/tmpyzXVAu/20161209-112627-3556/mean.binaryproto"
  }
  data_param {
    source: "/data/zim021/digits-proj/DIGITS/tmp/tmpyzXVAu/20161209-112627-3556/val_db"
    batch_size: 10
    backend: LMDB
  }
}
layer {
  name: "hidden"
  type: "InnerProduct"
  bottom: "data"
  top: "output"
  inner_product_param {
    num_output: 3
  }
}
layer {
  name: "loss"
  type: "SoftmaxWithLoss"
  bottom: "output"
  bottom: "label"
  top: "loss"
}
layer {
  name: "accuracy"
  type: "Accuracy"
  bottom: "output"
  bottom: "label"
  top: "accuracy"
  include {
    phase: TEST
  }
}
I1209 11:26:40.377025 16899 layer_factory.hpp:77] Creating layer data
I1209 11:26:40.377142 16899 net.cpp:100] Creating Layer data
I1209 11:26:40.377158 16899 net.cpp:408] data -> data
I1209 11:26:40.377177 16899 net.cpp:408] data -> label
I1209 11:26:40.377192 16899 data_transformer.cpp:25] Loading mean file from: /data/zim021/digits-proj/DIGITS/tmp/tmpyzXVAu/20161209-112627-3556/mean.binaryproto
I1209 11:26:40.381091 16919 db_lmdb.cpp:35] Opened lmdb /data/zim021/digits-proj/DIGITS/tmp/tmpyzXVAu/20161209-112627-3556/val_db
I1209 11:26:40.381367 16899 data_layer.cpp:41] output data size: 10,3,10,10
I1209 11:26:40.381808 16899 net.cpp:150] Setting up data
I1209 11:26:40.381824 16899 net.cpp:157] Top shape: 10 3 10 10 (3000)
I1209 11:26:40.381836 16899 net.cpp:157] Top shape: 10 (10)
I1209 11:26:40.381844 16899 net.cpp:165] Memory required for data: 12040
I1209 11:26:40.381851 16899 layer_factory.hpp:77] Creating layer label_data_1_split
I1209 11:26:40.381868 16899 net.cpp:100] Creating Layer label_data_1_split
I1209 11:26:40.381875 16899 net.cpp:434] label_data_1_split <- label
I1209 11:26:40.381885 16899 net.cpp:408] label_data_1_split -> label_data_1_split_0
I1209 11:26:40.381898 16899 net.cpp:408] label_data_1_split -> label_data_1_split_1
I1209 11:26:40.382001 16899 net.cpp:150] Setting up label_data_1_split
I1209 11:26:40.382012 16899 net.cpp:157] Top shape: 10 (10)
I1209 11:26:40.382026 16899 net.cpp:157] Top shape: 10 (10)
I1209 11:26:40.382032 16899 net.cpp:165] Memory required for data: 12120
I1209 11:26:40.382040 16899 layer_factory.hpp:77] Creating layer hidden
I1209 11:26:40.382050 16899 net.cpp:100] Creating Layer hidden
I1209 11:26:40.382055 16899 net.cpp:434] hidden <- data
I1209 11:26:40.382064 16899 net.cpp:408] hidden -> output
I1209 11:26:40.382222 16899 net.cpp:150] Setting up hidden
I1209 11:26:40.382235 16899 net.cpp:157] Top shape: 10 3 (30)
I1209 11:26:40.382242 16899 net.cpp:165] Memory required for data: 12240
I1209 11:26:40.382263 16899 layer_factory.hpp:77] Creating layer output_hidden_0_split
I1209 11:26:40.382272 16899 net.cpp:100] Creating Layer output_hidden_0_split
I1209 11:26:40.382278 16899 net.cpp:434] output_hidden_0_split <- output
I1209 11:26:40.382287 16899 net.cpp:408] output_hidden_0_split -> output_hidden_0_split_0
I1209 11:26:40.382300 16899 net.cpp:408] output_hidden_0_split -> output_hidden_0_split_1
I1209 11:26:40.382351 16899 net.cpp:150] Setting up output_hidden_0_split
I1209 11:26:40.382361 16899 net.cpp:157] Top shape: 10 3 (30)
I1209 11:26:40.382370 16899 net.cpp:157] Top shape: 10 3 (30)
I1209 11:26:40.382376 16899 net.cpp:165] Memory required for data: 12480
I1209 11:26:40.382382 16899 layer_factory.hpp:77] Creating layer loss
I1209 11:26:40.382395 16899 net.cpp:100] Creating Layer loss
I1209 11:26:40.382401 16899 net.cpp:434] loss <- output_hidden_0_split_0
I1209 11:26:40.382408 16899 net.cpp:434] loss <- label_data_1_split_0
I1209 11:26:40.382421 16899 net.cpp:408] loss -> loss
…
