…
I1209 11:22:50.419553 13240 net.cpp:322] The NetState phase (0) differed from the phase (1) specified by a rule in layer label
I1209 11:22:50.419574 13240 net.cpp:58] Initializing net from parameters:
state {
phase: TRAIN
level: 0
stage: ""
}
layer {
name: "data"
type: "Data"
top: "data"
include {
phase: TRAIN
}
data_param {
source: "/data/zim021/digits-proj/DIGITS/tmp/tmpyzXVAu/20161209-112241-5a96/train_db/features"
batch_size: 1
backend: LMDB
}
}
layer {
name: "label"
type: "Data"
top: "label"
include {
phase: TRAIN
}
data_param {
source: "/data/zim021/digits-proj/DIGITS/tmp/tmpyzXVAu/20161209-112241-5a96/train_db/labels"
batch_size: 1
backend: LMDB
}
}
layer {
name: "identity"
type: "Power"
bottom: "data"
top: "output"
}
layer {
name: "loss"
type: "EuclideanLoss"
bottom: "output"
bottom: "label"
top: "loss"
}
I1209 11:22:50.419765 13240 layer_factory.hpp:77] Creating layer data
I1209 11:22:50.419935 13240 net.cpp:100] Creating Layer data
I1209 11:22:50.419955 13240 net.cpp:408] data -> data
I1209 11:22:50.423882 13245 db_lmdb.cpp:35] Opened lmdb /data/zim021/digits-proj/DIGITS/tmp/tmpyzXVAu/20161209-112241-5a96/train_db/features
I1209 11:22:50.449182 13240 data_layer.cpp:41] output data size: 1,1,26,10
I1209 11:22:50.450656 13240 net.cpp:150] Setting up data
I1209 11:22:50.450678 13240 net.cpp:157] Top shape: 1 1 26 10 (260)
I1209 11:22:50.450724 13240 net.cpp:165] Memory required for data: 1040
I1209 11:22:50.450763 13240 layer_factory.hpp:77] Creating layer label
I1209 11:22:50.450851 13240 net.cpp:100] Creating Layer label
I1209 11:22:50.450880 13240 net.cpp:408] label -> label
I1209 11:22:50.455234 13247 db_lmdb.cpp:35] Opened lmdb /data/zim021/digits-proj/DIGITS/tmp/tmpyzXVAu/20161209-112241-5a96/train_db/labels
I1209 11:22:50.455430 13240 data_layer.cpp:41] output data size: 1,1,26,10
I1209 11:22:50.455971 13240 net.cpp:150] Setting up label
I1209 11:22:50.455986 13240 net.cpp:157] Top shape: 1 1 26 10 (260)
I1209 11:22:50.455996 13240 net.cpp:165] Memory required for data: 2080
I1209 11:22:50.456003 13240 layer_factory.hpp:77] Creating layer identity
I1209 11:22:50.456025 13240 net.cpp:100] Creating Layer identity
I1209 11:22:50.456035 13240 net.cpp:434] identity <- data
I1209 11:22:50.456055 13240 net.cpp:408] identity -> output
I1209 11:22:50.456117 13240 net.cpp:150] Setting up identity
I1209 11:22:50.456128 13240 net.cpp:157] Top shape: 1 1 26 10 (260)
I1209 11:22:50.456136 13240 net.cpp:165] Memory required for data: 3120
I1209 11:22:50.456142 13240 layer_factory.hpp:77] Creating layer loss
I1209 11:22:50.456152 13240 net.cpp:100] Creating Layer loss
I1209 11:22:50.456158 13240 net.cpp:434] loss <- output
I1209 11:22:50.456166 13240 net.cpp:434] loss <- label
I1209 11:22:50.456176 13240 net.cpp:408] loss -> loss
I1209 11:22:50.456255 13240 net.cpp:150] Setting up loss
…
I1209 11:22:50.456810 13240 net.cpp:322] The NetState phase (1) differed from the phase (0) specified by a rule in layer label
I1209 11:22:50.456820 13240 net.cpp:58] Initializing net from parameters:
state {
phase: TEST
}
layer {
name: "data"
type: "Data"
top: "data"
include {
phase: TEST
}
data_param {
source: "/data/zim021/digits-proj/DIGITS/tmp/tmpyzXVAu/20161209-112241-5a96/val_db/features"
batch_size: 1
backend: LMDB
}
}
layer {
name: "label"
type: "Data"
top: "label"
include {
phase: TEST
}
data_param {
source: "/data/zim021/digits-proj/DIGITS/tmp/tmpyzXVAu/20161209-112241-5a96/val_db/labels"
batch_size: 1
backend: LMDB
}
}
layer {
name: "identity"
type: "Power"
bottom: "data"
top: "output"
}
layer {
name: "loss"
type: "EuclideanLoss"
bottom: "output"
bottom: "label"
top: "loss"
}
I1209 11:22:50.456926 13240 layer_factory.hpp:77] Creating layer data
I1209 11:22:50.457017 13240 net.cpp:100] Creating Layer data
I1209 11:22:50.457033 13240 net.cpp:408] data -> data
I1209 11:22:50.460021 13249 db_lmdb.cpp:35] Opened lmdb /data/zim021/digits-proj/DIGITS/tmp/tmpyzXVAu/20161209-112241-5a96/val_db/features
I1209 11:22:50.460253 13240 data_layer.cpp:41] output data size: 1,1,16,28
I1209 11:22:50.460880 13240 net.cpp:150] Setting up data
I1209 11:22:50.460894 13240 net.cpp:157] Top shape: 1 1 16 28 (448)
I1209 11:22:50.460904 13240 net.cpp:165] Memory required for data: 1792
I1209 11:22:50.460911 13240 layer_factory.hpp:77] Creating layer label
I1209 11:22:50.460978 13240 net.cpp:100] Creating Layer label
I1209 11:22:50.460994 13240 net.cpp:408] label -> label
I1209 11:22:50.464299 13251 db_lmdb.cpp:35] Opened lmdb /data/zim021/digits-proj/DIGITS/tmp/tmpyzXVAu/20161209-112241-5a96/val_db/labels
I1209 11:22:50.464485 13240 data_layer.cpp:41] output data size: 1,1,16,28
I1209 11:22:50.464946 13240 net.cpp:150] Setting up label
I1209 11:22:50.464962 13240 net.cpp:157] Top shape: 1 1 16 28 (448)
I1209 11:22:50.464972 13240 net.cpp:165] Memory required for data: 3584
I1209 11:22:50.464982 13240 layer_factory.hpp:77] Creating layer identity
I1209 11:22:50.464993 13240 net.cpp:100] Creating Layer identity
I1209 11:22:50.464999 13240 net.cpp:434] identity <- data
I1209 11:22:50.465008 13240 net.cpp:408] identity -> output
I1209 11:22:50.465112 13240 net.cpp:150] Setting up identity
I1209 11:22:50.465126 13240 net.cpp:157] Top shape: 1 1 16 28 (448)
I1209 11:22:50.465152 13240 net.cpp:165] Memory required for data: 5376
I1209 11:22:50.465158 13240 layer_factory.hpp:77] Creating layer loss
I1209 11:22:50.465168 13240 net.cpp:100] Creating Layer loss
I1209 11:22:50.465174 13240 net.cpp:434] loss <- output
I1209 11:22:50.465181 13240 net.cpp:434] loss <- label
I1209 11:22:50.465189 13240 net.cpp:408] loss -> loss
I1209 11:22:50.465245 13240 net.cpp:150] Setting up loss
…
