…
I1125 16:13:57.102996 20833 net.cpp:322] The NetState phase (0) differed from the phase (1) specified by a rule in layer accuracy
I1125 16:13:57.103015 20833 net.cpp:58] Initializing net from parameters:
state {
phase: TRAIN
level: 0
stage: ""
}
layer {
name: "train-data"
type: "Data"
top: "data"
top: "label"
include {
phase: TRAIN
}
transform_param {
mean_file: "/data/zim021/digits-proj/DIGITS/digits/jobs/20161125-161231-08c0/mean.binaryproto"
}
data_param {
source: "/data/zim021/digits-proj/DIGITS/digits/jobs/20161125-161231-08c0/train_db"
batch_size: 64
backend: LMDB
}
}
layer {
name: "scale"
type: "Power"
bottom: "data"
top: "scaled"
power_param {
scale: 0.0125
}
}
layer {
name: "conv1"
type: "Convolution"
bottom: "scaled"
top: "conv1"
param {
lr_mult: 1
}
param {
lr_mult: 2
}
convolution_param {
num_output: 20
kernel_size: 5
stride: 1
weight_filler {
type: "xavier"
}
bias_filler {
type: "constant"
}
}
}
layer {
name: "pool1"
type: "Pooling"
bottom: "conv1"
top: "pool1"
pooling_param {
pool: MAX
kernel_size: 2
stride: 2
}
}
layer {
name: "conv2"
type: "Convolution"
bottom: "pool1"
top: "conv2"
param {
lr_mult: 1
}
param {
lr_mult: 2
}
convolution_param {
num_output: 50
kernel_size: 5
stride: 1
weight_filler {
type: "xavier"
}
bias_filler {
type: "constant"
}
}
}
layer {
name: "pool2"
type: "Pooling"
bottom: "conv2"
top: "pool2"
pooling_param {
pool: MAX
kernel_size: 2
stride: 2
}
}
layer {
name: "ip1"
type: "InnerProduct"
bottom: "pool2"
top: "ip1"
param {
lr_mult: 1
}
param {
lr_mult: 2
}
inner_product_param {
num_output: 500
weight_filler {
type: "xavier"
}
bias_filler {
type: "constant"
}
}
}
layer {
name: "relu1"
type: "ReLU"
bottom: "ip1"
top: "ip1"
}
layer {
name: "ip2"
type: "InnerProduct"
bottom: "ip1"
top: "ip2"
param {
lr_mult: 1
}
param {
lr_mult: 2
}
inner_product_param {
num_output: 10
weight_filler {
type: "xavier"
}
bias_filler {
type: "constant"
}
}
}
layer {
name: "loss"
type: "SoftmaxWithLoss"
bottom: "ip2"
bottom: "label"
top: "loss"
}
I1125 16:13:57.103392 20833 layer_factory.hpp:77] Creating layer train-data
I1125 16:13:57.104171 20833 net.cpp:100] Creating Layer train-data
I1125 16:13:57.104192 20833 net.cpp:408] train-data -> data
I1125 16:13:57.104233 20833 net.cpp:408] train-data -> label
I1125 16:13:57.104290 20833 data_transformer.cpp:25] Loading mean file from: /data/zim021/digits-proj/DIGITS/digits/jobs/20161125-161231-08c0/mean.binaryproto
I1125 16:13:57.106767 20836 db_lmdb.cpp:35] Opened lmdb /data/zim021/digits-proj/DIGITS/digits/jobs/20161125-161231-08c0/train_db
I1125 16:13:57.124644 20833 data_layer.cpp:41] output data size: 64,3,28,28
I1125 16:13:57.128851 20833 net.cpp:150] Setting up train-data
I1125 16:13:57.128929 20833 net.cpp:157] Top shape: 64 3 28 28 (150528)
I1125 16:13:57.128968 20833 net.cpp:157] Top shape: 64 (64)
I1125 16:13:57.128974 20833 net.cpp:165] Memory required for data: 602368
I1125 16:13:57.129000 20833 layer_factory.hpp:77] Creating layer scale
I1125 16:13:57.129020 20833 net.cpp:100] Creating Layer scale
I1125 16:13:57.129027 20833 net.cpp:434] scale <- data
I1125 16:13:57.129046 20833 net.cpp:408] scale -> scaled
I1125 16:13:57.129130 20833 net.cpp:150] Setting up scale
I1125 16:13:57.129144 20833 net.cpp:157] Top shape: 64 3 28 28 (150528)
I1125 16:13:57.129153 20833 net.cpp:165] Memory required for data: 1204480
I1125 16:13:57.129158 20833 layer_factory.hpp:77] Creating layer conv1
I1125 16:13:57.129185 20833 net.cpp:100] Creating Layer conv1
I1125 16:13:57.129190 20833 net.cpp:434] conv1 <- scaled
I1125 16:13:57.129212 20833 net.cpp:408] conv1 -> conv1
I1125 16:13:57.401412 20833 net.cpp:150] Setting up conv1
I1125 16:13:57.401453 20833 net.cpp:157] Top shape: 64 20 24 24 (737280)
I1125 16:13:57.401468 20833 net.cpp:165] Memory required for data: 4153600
I1125 16:13:57.401507 20833 layer_factory.hpp:77] Creating layer pool1
I1125 16:13:57.401535 20833 net.cpp:100] Creating Layer pool1
I1125 16:13:57.401551 20833 net.cpp:434] pool1 <- conv1
I1125 16:13:57.401564 20833 net.cpp:408] pool1 -> pool1
I1125 16:13:57.401662 20833 net.cpp:150] Setting up pool1
I1125 16:13:57.401672 20833 net.cpp:157] Top shape: 64 20 12 12 (184320)
I1125 16:13:57.401681 20833 net.cpp:165] Memory required for data: 4890880
I1125 16:13:57.401687 20833 layer_factory.hpp:77] Creating layer conv2
I1125 16:13:57.401712 20833 net.cpp:100] Creating Layer conv2
I1125 16:13:57.401718 20833 net.cpp:434] conv2 <- pool1
I1125 16:13:57.401731 20833 net.cpp:408] conv2 -> conv2
I1125 16:13:57.404922 20833 net.cpp:150] Setting up conv2
I1125 16:13:57.404934 20833 net.cpp:157] Top shape: 64 50 8 8 (204800)
I1125 16:13:57.404944 20833 net.cpp:165] Memory required for data: 5710080
I1125 16:13:57.404963 20833 layer_factory.hpp:77] Creating layer pool2
I1125 16:13:57.404979 20833 net.cpp:100] Creating Layer pool2
I1125 16:13:57.404986 20833 net.cpp:434] pool2 <- conv2
I1125 16:13:57.404995 20833 net.cpp:408] pool2 -> pool2
I1125 16:13:57.405064 20833 net.cpp:150] Setting up pool2
I1125 16:13:57.405072 20833 net.cpp:157] Top shape: 64 50 4 4 (51200)
I1125 16:13:57.405081 20833 net.cpp:165] Memory required for data: 5914880
I1125 16:13:57.405087 20833 layer_factory.hpp:77] Creating layer ip1
I1125 16:13:57.405103 20833 net.cpp:100] Creating Layer ip1
I1125 16:13:57.405109 20833 net.cpp:434] ip1 <- pool2
I1125 16:13:57.405122 20833 net.cpp:408] ip1 -> ip1
I1125 16:13:57.410938 20833 net.cpp:150] Setting up ip1
I1125 16:13:57.410953 20833 net.cpp:157] Top shape: 64 500 (32000)
I1125 16:13:57.410961 20833 net.cpp:165] Memory required for data: 6042880
I1125 16:13:57.410979 20833 layer_factory.hpp:77] Creating layer relu1
I1125 16:13:57.410993 20833 net.cpp:100] Creating Layer relu1
I1125 16:13:57.411000 20833 net.cpp:434] relu1 <- ip1
I1125 16:13:57.411012 20833 net.cpp:395] relu1 -> ip1 (in-place)
I1125 16:13:57.411345 20833 net.cpp:150] Setting up relu1
I1125 16:13:57.411355 20833 net.cpp:157] Top shape: 64 500 (32000)
I1125 16:13:57.411365 20833 net.cpp:165] Memory required for data: 6170880
I1125 16:13:57.411371 20833 layer_factory.hpp:77] Creating layer ip2
I1125 16:13:57.411389 20833 net.cpp:100] Creating Layer ip2
I1125 16:13:57.411396 20833 net.cpp:434] ip2 <- ip1
I1125 16:13:57.411406 20833 net.cpp:408] ip2 -> ip2
I1125 16:13:57.412678 20833 net.cpp:150] Setting up ip2
I1125 16:13:57.412689 20833 net.cpp:157] Top shape: 64 10 (640)
I1125 16:13:57.412698 20833 net.cpp:165] Memory required for data: 6173440
I1125 16:13:57.412711 20833 layer_factory.hpp:77] Creating layer loss
I1125 16:13:57.415083 20833 net.cpp:100] Creating Layer loss
I1125 16:13:57.415101 20833 net.cpp:434] loss <- ip2
I1125 16:13:57.415113 20833 net.cpp:434] loss <- label
I1125 16:13:57.415123 20833 net.cpp:408] loss -> loss
I1125 16:13:57.415150 20833 layer_factory.hpp:77] Creating layer loss
…
I1125 16:13:57.416636 20833 solver.cpp:181] Creating test net (#0) specified by net file: train_val.prototxt
I1125 16:13:57.416682 20833 net.cpp:322] The NetState phase (1) differed from the phase (0) specified by a rule in layer train-data
I1125 16:13:57.416702 20833 net.cpp:58] Initializing net from parameters:
state {
phase: TEST
}
layer {
name: "val-data"
type: "Data"
top: "data"
top: "label"
include {
phase: TEST
}
transform_param {
mean_file: "/data/zim021/digits-proj/DIGITS/digits/jobs/20161125-161231-08c0/mean.binaryproto"
}
data_param {
source: "/data/zim021/digits-proj/DIGITS/digits/jobs/20161125-161231-08c0/val_db"
batch_size: 32
backend: LMDB
}
}
layer {
name: "scale"
type: "Power"
bottom: "data"
top: "scaled"
power_param {
scale: 0.0125
}
}
layer {
name: "conv1"
type: "Convolution"
bottom: "scaled"
top: "conv1"
param {
lr_mult: 1
}
param {
lr_mult: 2
}
convolution_param {
num_output: 20
kernel_size: 5
stride: 1
weight_filler {
type: "xavier"
}
bias_filler {
type: "constant"
}
}
}
layer {
name: "pool1"
type: "Pooling"
bottom: "conv1"
top: "pool1"
pooling_param {
pool: MAX
kernel_size: 2
stride: 2
}
}
layer {
name: "conv2"
type: "Convolution"
bottom: "pool1"
top: "conv2"
param {
lr_mult: 1
}
param {
lr_mult: 2
}
convolution_param {
num_output: 50
kernel_size: 5
stride: 1
weight_filler {
type: "xavier"
}
bias_filler {
type: "constant"
}
}
}
layer {
name: "pool2"
type: "Pooling"
bottom: "conv2"
top: "pool2"
pooling_param {
pool: MAX
kernel_size: 2
stride: 2
}
}
layer {
name: "ip1"
type: "InnerProduct"
bottom: "pool2"
top: "ip1"
param {
lr_mult: 1
}
param {
lr_mult: 2
}
inner_product_param {
num_output: 500
weight_filler {
type: "xavier"
}
bias_filler {
type: "constant"
}
}
}
layer {
name: "relu1"
type: "ReLU"
bottom: "ip1"
top: "ip1"
}
layer {
name: "ip2"
type: "InnerProduct"
bottom: "ip1"
top: "ip2"
param {
lr_mult: 1
}
param {
lr_mult: 2
}
inner_product_param {
num_output: 10
weight_filler {
type: "xavier"
}
bias_filler {
type: "constant"
}
}
}
layer {
name: "accuracy"
type: "Accuracy"
bottom: "ip2"
bottom: "label"
top: "accuracy"
include {
phase: TEST
}
}
layer {
name: "loss"
type: "SoftmaxWithLoss"
bottom: "ip2"
bottom: "label"
top: "loss"
}
I1125 16:13:57.416991 20833 layer_factory.hpp:77] Creating layer val-data
I1125 16:13:57.417646 20833 net.cpp:100] Creating Layer val-data
I1125 16:13:57.417661 20833 net.cpp:408] val-data -> data
I1125 16:13:57.417675 20833 net.cpp:408] val-data -> label
I1125 16:13:57.417686 20833 data_transformer.cpp:25] Loading mean file from: /data/zim021/digits-proj/DIGITS/digits/jobs/20161125-161231-08c0/mean.binaryproto
I1125 16:13:57.420269 20838 db_lmdb.cpp:35] Opened lmdb /data/zim021/digits-proj/DIGITS/digits/jobs/20161125-161231-08c0/val_db
I1125 16:13:57.420508 20833 data_layer.cpp:41] output data size: 32,3,28,28
I1125 16:13:57.421154 20833 net.cpp:150] Setting up val-data
I1125 16:13:57.421164 20833 net.cpp:157] Top shape: 32 3 28 28 (75264)
I1125 16:13:57.421176 20833 net.cpp:157] Top shape: 32 (32)
I1125 16:13:57.421182 20833 net.cpp:165] Memory required for data: 301184
I1125 16:13:57.421190 20833 layer_factory.hpp:77] Creating layer label_val-data_1_split
I1125 16:13:57.421274 20833 net.cpp:100] Creating Layer label_val-data_1_split
I1125 16:13:57.421283 20833 net.cpp:434] label_val-data_1_split <- label
I1125 16:13:57.421290 20833 net.cpp:408] label_val-data_1_split -> label_val-data_1_split_0
I1125 16:13:57.421305 20833 net.cpp:408] label_val-data_1_split -> label_val-data_1_split_1
I1125 16:13:57.421455 20833 net.cpp:150] Setting up label_val-data_1_split
I1125 16:13:57.421464 20833 net.cpp:157] Top shape: 32 (32)
I1125 16:13:57.421471 20833 net.cpp:157] Top shape: 32 (32)
I1125 16:13:57.421494 20833 net.cpp:165] Memory required for data: 301440
I1125 16:13:57.421505 20833 layer_factory.hpp:77] Creating layer scale
I1125 16:13:57.421514 20833 net.cpp:100] Creating Layer scale
I1125 16:13:57.421519 20833 net.cpp:434] scale <- data
I1125 16:13:57.421526 20833 net.cpp:408] scale -> scaled
I1125 16:13:57.421603 20833 net.cpp:150] Setting up scale
I1125 16:13:57.421623 20833 net.cpp:157] Top shape: 32 3 28 28 (75264)
I1125 16:13:57.421630 20833 net.cpp:165] Memory required for data: 602496
I1125 16:13:57.421635 20833 layer_factory.hpp:77] Creating layer conv1
I1125 16:13:57.421653 20833 net.cpp:100] Creating Layer conv1
I1125 16:13:57.421658 20833 net.cpp:434] conv1 <- scaled
I1125 16:13:57.421669 20833 net.cpp:408] conv1 -> conv1
I1125 16:13:57.426712 20833 net.cpp:150] Setting up conv1
I1125 16:13:57.426723 20833 net.cpp:157] Top shape: 32 20 24 24 (368640)
I1125 16:13:57.426731 20833 net.cpp:165] Memory required for data: 2077056
I1125 16:13:57.426753 20833 layer_factory.hpp:77] Creating layer pool1
I1125 16:13:57.426765 20833 net.cpp:100] Creating Layer pool1
I1125 16:13:57.426770 20833 net.cpp:434] pool1 <- conv1
I1125 16:13:57.426777 20833 net.cpp:408] pool1 -> pool1
I1125 16:13:57.426839 20833 net.cpp:150] Setting up pool1
I1125 16:13:57.426846 20833 net.cpp:157] Top shape: 32 20 12 12 (92160)
I1125 16:13:57.426853 20833 net.cpp:165] Memory required for data: 2445696
I1125 16:13:57.426857 20833 layer_factory.hpp:77] Creating layer conv2
I1125 16:13:57.426873 20833 net.cpp:100] Creating Layer conv2
I1125 16:13:57.426879 20833 net.cpp:434] conv2 <- pool1
I1125 16:13:57.426889 20833 net.cpp:408] conv2 -> conv2
I1125 16:13:57.428755 20833 net.cpp:150] Setting up conv2
I1125 16:13:57.428766 20833 net.cpp:157] Top shape: 32 50 8 8 (102400)
I1125 16:13:57.428773 20833 net.cpp:165] Memory required for data: 2855296
I1125 16:13:57.428788 20833 layer_factory.hpp:77] Creating layer pool2
I1125 16:13:57.428798 20833 net.cpp:100] Creating Layer pool2
I1125 16:13:57.428803 20833 net.cpp:434] pool2 <- conv2
I1125 16:13:57.428810 20833 net.cpp:408] pool2 -> pool2
I1125 16:13:57.428870 20833 net.cpp:150] Setting up pool2
I1125 16:13:57.428877 20833 net.cpp:157] Top shape: 32 50 4 4 (25600)
I1125 16:13:57.428885 20833 net.cpp:165] Memory required for data: 2957696
I1125 16:13:57.428889 20833 layer_factory.hpp:77] Creating layer ip1
I1125 16:13:57.428902 20833 net.cpp:100] Creating Layer ip1
I1125 16:13:57.428907 20833 net.cpp:434] ip1 <- pool2
I1125 16:13:57.428915 20833 net.cpp:408] ip1 -> ip1
I1125 16:13:57.433884 20833 net.cpp:150] Setting up ip1
I1125 16:13:57.433898 20833 net.cpp:157] Top shape: 32 500 (16000)
I1125 16:13:57.433908 20833 net.cpp:165] Memory required for data: 3021696
I1125 16:13:57.433923 20833 layer_factory.hpp:77] Creating layer relu1
I1125 16:13:57.433940 20833 net.cpp:100] Creating Layer relu1
I1125 16:13:57.433946 20833 net.cpp:434] relu1 <- ip1
I1125 16:13:57.433987 20833 net.cpp:395] relu1 -> ip1 (in-place)
I1125 16:13:57.434290 20833 net.cpp:150] Setting up relu1
I1125 16:13:57.434301 20833 net.cpp:157] Top shape: 32 500 (16000)
I1125 16:13:57.434310 20833 net.cpp:165] Memory required for data: 3085696
I1125 16:13:57.434316 20833 layer_factory.hpp:77] Creating layer ip2
I1125 16:13:57.434331 20833 net.cpp:100] Creating Layer ip2
I1125 16:13:57.434337 20833 net.cpp:434] ip2 <- ip1
I1125 16:13:57.434350 20833 net.cpp:408] ip2 -> ip2
I1125 16:13:57.434587 20833 net.cpp:150] Setting up ip2
I1125 16:13:57.434597 20833 net.cpp:157] Top shape: 32 10 (320)
I1125 16:13:57.434604 20833 net.cpp:165] Memory required for data: 3086976
I1125 16:13:57.434619 20833 layer_factory.hpp:77] Creating layer ip2_ip2_0_split
I1125 16:13:57.434629 20833 net.cpp:100] Creating Layer ip2_ip2_0_split
I1125 16:13:57.434635 20833 net.cpp:434] ip2_ip2_0_split <- ip2
I1125 16:13:57.434643 20833 net.cpp:408] ip2_ip2_0_split -> ip2_ip2_0_split_0
I1125 16:13:57.434653 20833 net.cpp:408] ip2_ip2_0_split -> ip2_ip2_0_split_1
I1125 16:13:57.434715 20833 net.cpp:150] Setting up ip2_ip2_0_split
I1125 16:13:57.434722 20833 net.cpp:157] Top shape: 32 10 (320)
I1125 16:13:57.434731 20833 net.cpp:157] Top shape: 32 10 (320)
I1125 16:13:57.434736 20833 net.cpp:165] Memory required for data: 3089536
I1125 16:13:57.434742 20833 layer_factory.hpp:77] Creating layer accuracy
I1125 16:13:57.434758 20833 net.cpp:100] Creating Layer accuracy
I1125 16:13:57.434764 20833 net.cpp:434] accuracy <- ip2_ip2_0_split_0
I1125 16:13:57.434772 20833 net.cpp:434] accuracy <- label_val-data_1_split_0
I1125 16:13:57.434785 20833 net.cpp:408] accuracy -> accuracy
…
