…
I1130 12:37:17.352293 30454 net.cpp:322] The NetState phase (0) differed from the phase (1) specified by a rule in layer accuracy
I1130 12:37:17.352311 30454 net.cpp:58] Initializing net from parameters:
state {
phase: TRAIN
level: 0
stage: ""
}
layer {
name: "train-data"
type: "Data"
top: "data"
top: "label"
include {
phase: TRAIN
}
transform_param {
mean_file: "/data/zim021/digits-proj/DIGITS/digits/jobs/20161125-161231-08c0/mean.binaryproto"
}
data_param {
source: "/data/zim021/digits-proj/DIGITS/digits/jobs/20161125-161231-08c0/train_db"
batch_size: 64
backend: LMDB
}
}
layer {
name: "scale"
type: "Power"
bottom: "data"
top: "scaled"
power_param {
scale: 0.0125
}
}
layer {
name: "conv1"
type: "Convolution"
bottom: "scaled"
top: "conv1"
param {
lr_mult: 1
}
param {
lr_mult: 2
}
convolution_param {
num_output: 20
kernel_size: 5
stride: 1
weight_filler {
type: "xavier"
}
bias_filler {
type: "constant"
}
}
}
layer {
name: "pool1"
type: "Pooling"
bottom: "conv1"
top: "pool1"
pooling_param {
pool: MAX
kernel_size: 2
stride: 2
}
}
layer {
name: "conv2"
type: "Convolution"
bottom: "pool1"
top: "conv2"
param {
lr_mult: 1
}
param {
lr_mult: 2
}
convolution_param {
num_output: 50
kernel_size: 5
stride: 1
weight_filler {
type: "xavier"
}
bias_filler {
type: "constant"
}
}
}
layer {
name: "pool2"
type: "Pooling"
bottom: "conv2"
top: "pool2"
pooling_param {
pool: MAX
kernel_size: 2
stride: 2
}
}
layer {
name: "ip1"
type: "InnerProduct"
bottom: "pool2"
top: "ip1"
param {
lr_mult: 1
}
param {
lr_mult: 2
}
inner_product_param {
num_output: 500
weight_filler {
type: "xavier"
}
bias_filler {
type: "constant"
}
}
}
layer {
name: "relu1"
type: "ReLU"
bottom: "ip1"
top: "ip1"
}
layer {
name: "ip2"
type: "InnerProduct"
bottom: "ip1"
top: "ip2"
param {
lr_mult: 1
}
param {
lr_mult: 2
}
inner_product_param {
num_output: 10
weight_filler {
type: "xavier"
}
bias_filler {
type: "constant"
}
}
}
layer {
name: "loss"
type: "SoftmaxWithLoss"
bottom: "ip2"
bottom: "label"
top: "loss"
}
I1130 12:37:17.352712 30454 layer_factory.hpp:77] Creating layer train-data
I1130 12:37:17.353489 30454 net.cpp:100] Creating Layer train-data
I1130 12:37:17.353514 30454 net.cpp:408] train-data -> data
I1130 12:37:17.353569 30454 net.cpp:408] train-data -> label
I1130 12:37:17.353587 30454 data_transformer.cpp:25] Loading mean file from: /data/zim021/digits-proj/DIGITS/digits/jobs/20161125-161231-08c0/mean.binaryproto
…
I1130 12:37:17.347924  7902 net.cpp:322] The NetState phase (0) differed from the phase (1) specified by a rule in layer accuracy
I1130 12:37:17.347945  7902 net.cpp:58] Initializing net from parameters:
state {
phase: TRAIN
level: 0
stage: ""
}
layer {
name: "train-data"
type: "Data"
top: "data"
top: "label"
include {
phase: TRAIN
}
transform_param {
mean_file: "/data/zim021/digits-proj/DIGITS/digits/jobs/20161125-161231-08c0/mean.binaryproto"
}
data_param {
source: "/data/zim021/digits-proj/DIGITS/digits/jobs/20161125-161231-08c0/train_db"
batch_size: 64
backend: LMDB
}
}
layer {
name: "scale"
type: "Power"
bottom: "data"
top: "scaled"
power_param {
scale: 0.0125
}
}
layer {
name: "conv1"
type: "Convolution"
bottom: "scaled"
top: "conv1"
param {
lr_mult: 1
}
param {
lr_mult: 2
}
convolution_param {
num_output: 20
kernel_size: 5
stride: 1
weight_filler {
type: "xavier"
}
bias_filler {
type: "constant"
}
}
}
layer {
name: "pool1"
type: "Pooling"
bottom: "conv1"
top: "pool1"
pooling_param {
pool: MAX
kernel_size: 2
stride: 2
}
}
layer {
name: "conv2"
type: "Convolution"
bottom: "pool1"
top: "conv2"
param {
lr_mult: 1
}
param {
lr_mult: 2
}
convolution_param {
num_output: 50
kernel_size: 5
stride: 1
weight_filler {
type: "xavier"
}
bias_filler {
type: "constant"
}
}
}
layer {
name: "pool2"
type: "Pooling"
bottom: "conv2"
top: "pool2"
pooling_param {
pool: MAX
kernel_size: 2
stride: 2
}
}
layer {
name: "ip1"
type: "InnerProduct"
bottom: "pool2"
top: "ip1"
param {
lr_mult: 1
}
param {
lr_mult: 2
}
inner_product_param {
num_output: 500
weight_filler {
type: "xavier"
}
bias_filler {
type: "constant"
}
}
}
layer {
name: "relu1"
type: "ReLU"
bottom: "ip1"
top: "ip1"
}
layer {
name: "ip2"
type: "InnerProduct"
bottom: "ip1"
top: "ip2"
param {
lr_mult: 1
}
param {
lr_mult: 2
}
inner_product_param {
num_output: 10
weight_filler {
type: "xavier"
}
bias_filler {
type: "constant"
}
}
}
layer {
name: "loss"
type: "SoftmaxWithLoss"
bottom: "ip2"
bottom: "label"
top: "loss"
}
I1130 12:37:17.348311  7902 layer_factory.hpp:77] Creating layer train-data
I1130 12:37:17.349078  7902 net.cpp:100] Creating Layer train-data
I1130 12:37:17.349156  7902 net.cpp:408] train-data -> data
I1130 12:37:17.349210  7902 net.cpp:408] train-data -> label
I1130 12:37:17.349259  7902 data_transformer.cpp:25] Loading mean file from: /data/zim021/digits-proj/DIGITS/digits/jobs/20161125-161231-08c0/mean.binaryproto
I1130 12:37:17.364681  7907 db_lmdb.cpp:35] Opened lmdb /data/zim021/digits-proj/DIGITS/digits/jobs/20161125-161231-08c0/train_db
I1130 12:37:17.390152  7902 data_layer.cpp:41] output data size: 64,3,28,28
I1130 12:37:17.394486  7902 net.cpp:150] Setting up train-data
I1130 12:37:17.394551  7902 net.cpp:157] Top shape: 64 3 28 28 (150528)
I1130 12:37:17.394572  7902 net.cpp:157] Top shape: 64 (64)
I1130 12:37:17.394580  7902 net.cpp:165] Memory required for data: 602368
I1130 12:37:17.394614  7902 layer_factory.hpp:77] Creating layer scale
I1130 12:37:17.394632  7902 net.cpp:100] Creating Layer scale
I1130 12:37:17.394641  7902 net.cpp:434] scale <- data
I1130 12:37:17.394660  7902 net.cpp:408] scale -> scaled
I1130 12:37:17.394737  7902 net.cpp:150] Setting up scale
I1130 12:37:17.394749  7902 net.cpp:157] Top shape: 64 3 28 28 (150528)
I1130 12:37:17.394757  7902 net.cpp:165] Memory required for data: 1204480
I1130 12:37:17.394764  7902 layer_factory.hpp:77] Creating layer conv1
I1130 12:37:17.394796  7902 net.cpp:100] Creating Layer conv1
I1130 12:37:17.394814  7902 net.cpp:434] conv1 <- scaled
I1130 12:37:17.394824  7902 net.cpp:408] conv1 -> conv1
I1130 12:37:17.379897 30454 data_layer.cpp:41] output data size: 64,3,28,28
I1130 12:37:17.384428 30454 net.cpp:150] Setting up train-data
I1130 12:37:17.384497 30454 net.cpp:157] Top shape: 64 3 28 28 (150528)
I1130 12:37:17.384518 30454 net.cpp:157] Top shape: 64 (64)
I1130 12:37:17.384526 30454 net.cpp:165] Memory required for data: 602368
I1130 12:37:17.384551 30454 layer_factory.hpp:77] Creating layer scale
I1130 12:37:17.384568 30454 net.cpp:100] Creating Layer scale
I1130 12:37:17.384577 30454 net.cpp:434] scale <- data
I1130 12:37:17.384595 30454 net.cpp:408] scale -> scaled
I1130 12:37:17.384693 30454 net.cpp:150] Setting up scale
I1130 12:37:17.384706 30454 net.cpp:157] Top shape: 64 3 28 28 (150528)
I1130 12:37:17.384716 30454 net.cpp:165] Memory required for data: 1204480
I1130 12:37:17.384721 30454 layer_factory.hpp:77] Creating layer conv1
I1130 12:37:17.384759 30454 net.cpp:100] Creating Layer conv1
I1130 12:37:17.384766 30454 net.cpp:434] conv1 <- scaled
I1130 12:37:17.384780 30454 net.cpp:408] conv1 -> conv1
I1130 12:37:17.666437 30454 net.cpp:150] Setting up conv1
I1130 12:37:17.666476 30454 net.cpp:157] Top shape: 64 20 24 24 (737280)
I1130 12:37:17.666493 30454 net.cpp:165] Memory required for data: 4153600
I1130 12:37:17.666533 30454 layer_factory.hpp:77] Creating layer pool1
I1130 12:37:17.666563 30454 net.cpp:100] Creating Layer pool1
I1130 12:37:17.666570 30454 net.cpp:434] pool1 <- conv1
I1130 12:37:17.666584 30454 net.cpp:408] pool1 -> pool1
I1130 12:37:17.666673 30454 net.cpp:150] Setting up pool1
I1130 12:37:17.666693 30454 net.cpp:157] Top shape: 64 20 12 12 (184320)
I1130 12:37:17.666702 30454 net.cpp:165] Memory required for data: 4890880
I1130 12:37:17.666708 30454 layer_factory.hpp:77] Creating layer conv2
I1130 12:37:17.666734 30454 net.cpp:100] Creating Layer conv2
I1130 12:37:17.666740 30454 net.cpp:434] conv2 <- pool1
I1130 12:37:17.666762 30454 net.cpp:408] conv2 -> conv2
I1130 12:37:17.669692 30454 net.cpp:150] Setting up conv2
I1130 12:37:17.669708 30454 net.cpp:157] Top shape: 64 50 8 8 (204800)
I1130 12:37:17.669718 30454 net.cpp:165] Memory required for data: 5710080
I1130 12:37:17.669739 30454 layer_factory.hpp:77] Creating layer pool2
I1130 12:37:17.669761 30454 net.cpp:100] Creating Layer pool2
I1130 12:37:17.669770 30454 net.cpp:434] pool2 <- conv2
I1130 12:37:17.669780 30454 net.cpp:408] pool2 -> pool2
I1130 12:37:17.669853 30454 net.cpp:150] Setting up pool2
I1130 12:37:17.669862 30454 net.cpp:157] Top shape: 64 50 4 4 (51200)
I1130 12:37:17.669883 30454 net.cpp:165] Memory required for data: 5914880
I1130 12:37:17.669888 30454 layer_factory.hpp:77] Creating layer ip1
I1130 12:37:17.669909 30454 net.cpp:100] Creating Layer ip1
I1130 12:37:17.669914 30454 net.cpp:434] ip1 <- pool2
I1130 12:37:17.669924 30454 net.cpp:408] ip1 -> ip1
I1130 12:37:17.675290 30454 net.cpp:150] Setting up ip1
I1130 12:37:17.675307 30454 net.cpp:157] Top shape: 64 500 (32000)
I1130 12:37:17.675317 30454 net.cpp:165] Memory required for data: 6042880
I1130 12:37:17.675333 30454 layer_factory.hpp:77] Creating layer relu1
I1130 12:37:17.675351 30454 net.cpp:100] Creating Layer relu1
I1130 12:37:17.675359 30454 net.cpp:434] relu1 <- ip1
I1130 12:37:17.675367 30454 net.cpp:395] relu1 -> ip1 (in-place)
I1130 12:37:17.675673 30454 net.cpp:150] Setting up relu1
I1130 12:37:17.675688 30454 net.cpp:157] Top shape: 64 500 (32000)
I1130 12:37:17.675696 30454 net.cpp:165] Memory required for data: 6170880
I1130 12:37:17.675707 30454 layer_factory.hpp:77] Creating layer ip2
I1130 12:37:17.675724 30454 net.cpp:100] Creating Layer ip2
I1130 12:37:17.675731 30454 net.cpp:434] ip2 <- ip1
I1130 12:37:17.675740 30454 net.cpp:408] ip2 -> ip2
I1130 12:37:17.676720 30454 net.cpp:150] Setting up ip2
I1130 12:37:17.676734 30454 net.cpp:157] Top shape: 64 10 (640)
I1130 12:37:17.676744 30454 net.cpp:165] Memory required for data: 6173440
I1130 12:37:17.676756 30454 layer_factory.hpp:77] Creating layer loss
I1130 12:37:17.676775 30454 net.cpp:100] Creating Layer loss
I1130 12:37:17.676781 30454 net.cpp:434] loss <- ip2
I1130 12:37:17.676789 30454 net.cpp:434] loss <- label
I1130 12:37:17.676800 30454 net.cpp:408] loss -> loss
I1130 12:37:17.676820 30454 layer_factory.hpp:77] Creating layer loss
…
I1130 12:37:17.678479 30454 solver.cpp:181] Creating test net (#0) specified by net file: train_val.prototxt
I1130 12:37:17.678540 30454 net.cpp:322] The NetState phase (1) differed from the phase (0) specified by a rule in layer train-data
I1130 12:37:17.678565 30454 net.cpp:58] Initializing net from parameters:
state {
phase: TEST
}
layer {
name: "val-data"
type: "Data"
top: "data"
top: "label"
include {
phase: TEST
}
transform_param {
mean_file: "/data/zim021/digits-proj/DIGITS/digits/jobs/20161125-161231-08c0/mean.binaryproto"
}
data_param {
source: "/data/zim021/digits-proj/DIGITS/digits/jobs/20161125-161231-08c0/val_db"
batch_size: 32
backend: LMDB
}
}
layer {
name: "scale"
type: "Power"
bottom: "data"
top: "scaled"
power_param {
scale: 0.0125
}
}
layer {
name: "conv1"
type: "Convolution"
bottom: "scaled"
top: "conv1"
param {
lr_mult: 1
}
param {
lr_mult: 2
}
convolution_param {
num_output: 20
kernel_size: 5
stride: 1
weight_filler {
type: "xavier"
}
bias_filler {
type: "constant"
}
}
}
layer {
name: "pool1"
type: "Pooling"
bottom: "conv1"
top: "pool1"
pooling_param {
pool: MAX
kernel_size: 2
stride: 2
}
}
layer {
name: "conv2"
type: "Convolution"
bottom: "pool1"
top: "conv2"
param {
lr_mult: 1
}
param {
lr_mult: 2
}
convolution_param {
num_output: 50
kernel_size: 5
stride: 1
weight_filler {
type: "xavier"
}
bias_filler {
type: "constant"
}
}
}
layer {
name: "pool2"
type: "Pooling"
bottom: "conv2"
top: "pool2"
pooling_param {
pool: MAX
kernel_size: 2
stride: 2
}
}
layer {
name: "ip1"
type: "InnerProduct"
bottom: "pool2"
top: "ip1"
param {
lr_mult: 1
}
param {
lr_mult: 2
}
inner_product_param {
num_output: 500
weight_filler {
type: "xavier"
}
bias_filler {
type: "constant"
}
}
}
layer {
name: "relu1"
type: "ReLU"
bottom: "ip1"
top: "ip1"
}
layer {
name: "ip2"
type: "InnerProduct"
bottom: "ip1"
top: "ip2"
param {
lr_mult: 1
}
param {
lr_mult: 2
}
inner_product_param {
num_output: 10
weight_filler {
type: "xavier"
}
bias_filler {
type: "constant"
}
}
}
layer {
name: "accuracy"
type: "Accuracy"
bottom: "ip2"
bottom: "label"
top: "accuracy"
include {
phase: TEST
}
}
layer {
name: "loss"
type: "SoftmaxWithLoss"
bottom: "ip2"
bottom: "label"
top: "loss"
}
I1130 12:37:17.678936 30454 layer_factory.hpp:77] Creating layer val-data
I1130 12:37:17.679085 30454 net.cpp:100] Creating Layer val-data
I1130 12:37:17.679100 30454 net.cpp:408] val-data -> data
I1130 12:37:17.679119 30454 net.cpp:408] val-data -> label
I1130 12:37:17.679132 30454 data_transformer.cpp:25] Loading mean file from: /data/zim021/digits-proj/DIGITS/digits/jobs/20161125-161231-08c0/mean.binaryproto
I1130 12:37:17.681447 30461 db_lmdb.cpp:35] Opened lmdb /data/zim021/digits-proj/DIGITS/digits/jobs/20161125-161231-08c0/val_db
I1130 12:37:17.681726 30454 data_layer.cpp:41] output data size: 32,3,28,28
I1130 12:37:17.683089 30454 net.cpp:150] Setting up val-data
I1130 12:37:17.683104 30454 net.cpp:157] Top shape: 32 3 28 28 (75264)
I1130 12:37:17.683127 30454 net.cpp:157] Top shape: 32 (32)
I1130 12:37:17.683136 30454 net.cpp:165] Memory required for data: 301184
I1130 12:37:17.683143 30454 layer_factory.hpp:77] Creating layer label_val-data_1_split
I1130 12:37:17.683159 30454 net.cpp:100] Creating Layer label_val-data_1_split
I1130 12:37:17.683166 30454 net.cpp:434] label_val-data_1_split <- label
I1130 12:37:17.683176 30454 net.cpp:408] label_val-data_1_split -> label_val-data_1_split_0
I1130 12:37:17.683192 30454 net.cpp:408] label_val-data_1_split -> label_val-data_1_split_1
I1130 12:37:17.683328 30454 net.cpp:150] Setting up label_val-data_1_split
I1130 12:37:17.683341 30454 net.cpp:157] Top shape: 32 (32)
I1130 12:37:17.683354 30454 net.cpp:157] Top shape: 32 (32)
I1130 12:37:17.683362 30454 net.cpp:165] Memory required for data: 301440
I1130 12:37:17.683367 30454 layer_factory.hpp:77] Creating layer scale
I1130 12:37:17.683379 30454 net.cpp:100] Creating Layer scale
I1130 12:37:17.683384 30454 net.cpp:434] scale <- data
I1130 12:37:17.683393 30454 net.cpp:408] scale -> scaled
I1130 12:37:17.683444 30454 net.cpp:150] Setting up scale
I1130 12:37:17.683454 30454 net.cpp:157] Top shape: 32 3 28 28 (75264)
I1130 12:37:17.683462 30454 net.cpp:165] Memory required for data: 602496
I1130 12:37:17.683468 30454 layer_factory.hpp:77] Creating layer conv1
I1130 12:37:17.683486 30454 net.cpp:100] Creating Layer conv1
I1130 12:37:17.683492 30454 net.cpp:434] conv1 <- scaled
I1130 12:37:17.683504 30454 net.cpp:408] conv1 -> conv1
I1130 12:37:17.685503 30454 net.cpp:150] Setting up conv1
I1130 12:37:17.685518 30454 net.cpp:157] Top shape: 32 20 24 24 (368640)
I1130 12:37:17.685529 30454 net.cpp:165] Memory required for data: 2077056
I1130 12:37:17.685551 30454 layer_factory.hpp:77] Creating layer pool1
I1130 12:37:17.685572 30454 net.cpp:100] Creating Layer pool1
I1130 12:37:17.685578 30454 net.cpp:434] pool1 <- conv1
I1130 12:37:17.685590 30454 net.cpp:408] pool1 -> pool1
I1130 12:37:17.685670 30454 net.cpp:150] Setting up pool1
I1130 12:37:17.685680 30454 net.cpp:157] Top shape: 32 20 12 12 (92160)
I1130 12:37:17.685689 30454 net.cpp:165] Memory required for data: 2445696
I1130 12:37:17.685695 30454 layer_factory.hpp:77] Creating layer conv2
I1130 12:37:17.685716 30454 net.cpp:100] Creating Layer conv2
I1130 12:37:17.685724 30454 net.cpp:434] conv2 <- pool1
I1130 12:37:17.685734 30454 net.cpp:408] conv2 -> conv2
I1130 12:37:17.687835 30454 net.cpp:150] Setting up conv2
I1130 12:37:17.687850 30454 net.cpp:157] Top shape: 32 50 8 8 (102400)
I1130 12:37:17.687861 30454 net.cpp:165] Memory required for data: 2855296
I1130 12:37:17.687878 30454 layer_factory.hpp:77] Creating layer pool2
I1130 12:37:17.687891 30454 net.cpp:100] Creating Layer pool2
I1130 12:37:17.687896 30454 net.cpp:434] pool2 <- conv2
I1130 12:37:17.687908 30454 net.cpp:408] pool2 -> pool2
I1130 12:37:17.688086 30454 net.cpp:150] Setting up pool2
I1130 12:37:17.688099 30454 net.cpp:157] Top shape: 32 50 4 4 (25600)
I1130 12:37:17.688108 30454 net.cpp:165] Memory required for data: 2957696
I1130 12:37:17.688114 30454 layer_factory.hpp:77] Creating layer ip1
I1130 12:37:17.688127 30454 net.cpp:100] Creating Layer ip1
I1130 12:37:17.688133 30454 net.cpp:434] ip1 <- pool2
I1130 12:37:17.688145 30454 net.cpp:408] ip1 -> ip1
I1130 12:37:17.693334 30454 net.cpp:150] Setting up ip1
I1130 12:37:17.693349 30454 net.cpp:157] Top shape: 32 500 (16000)
I1130 12:37:17.693359 30454 net.cpp:165] Memory required for data: 3021696
I1130 12:37:17.693375 30454 layer_factory.hpp:77] Creating layer relu1
I1130 12:37:17.693392 30454 net.cpp:100] Creating Layer relu1
I1130 12:37:17.693397 30454 net.cpp:434] relu1 <- ip1
I1130 12:37:17.693430 30454 net.cpp:395] relu1 -> ip1 (in-place)
I1130 12:37:17.693742 30454 net.cpp:150] Setting up relu1
I1130 12:37:17.693770 30454 net.cpp:157] Top shape: 32 500 (16000)
I1130 12:37:17.693784 30454 net.cpp:165] Memory required for data: 3085696
I1130 12:37:17.693791 30454 layer_factory.hpp:77] Creating layer ip2
I1130 12:37:17.693802 30454 net.cpp:100] Creating Layer ip2
I1130 12:37:17.693809 30454 net.cpp:434] ip2 <- ip1
I1130 12:37:17.693821 30454 net.cpp:408] ip2 -> ip2
I1130 12:37:17.694064 30454 net.cpp:150] Setting up ip2
I1130 12:37:17.694077 30454 net.cpp:157] Top shape: 32 10 (320)
I1130 12:37:17.694085 30454 net.cpp:165] Memory required for data: 3086976
I1130 12:37:17.694097 30454 layer_factory.hpp:77] Creating layer ip2_ip2_0_split
I1130 12:37:17.694108 30454 net.cpp:100] Creating Layer ip2_ip2_0_split
I1130 12:37:17.694113 30454 net.cpp:434] ip2_ip2_0_split <- ip2
I1130 12:37:17.694121 30454 net.cpp:408] ip2_ip2_0_split -> ip2_ip2_0_split_0
I1130 12:37:17.694133 30454 net.cpp:408] ip2_ip2_0_split -> ip2_ip2_0_split_1
I1130 12:37:17.694202 30454 net.cpp:150] Setting up ip2_ip2_0_split
I1130 12:37:17.694212 30454 net.cpp:157] Top shape: 32 10 (320)
I1130 12:37:17.694221 30454 net.cpp:157] Top shape: 32 10 (320)
I1130 12:37:17.694227 30454 net.cpp:165] Memory required for data: 3089536
I1130 12:37:17.694233 30454 layer_factory.hpp:77] Creating layer accuracy
I1130 12:37:17.694250 30454 net.cpp:100] Creating Layer accuracy
I1130 12:37:17.694259 30454 net.cpp:434] accuracy <- ip2_ip2_0_split_0
I1130 12:37:17.694267 30454 net.cpp:434] accuracy <- label_val-data_1_split_0
I1130 12:37:17.694275 30454 net.cpp:408] accuracy -> accuracy
…
I1130 12:37:17.695133 30454 net.cpp:283] Network initialization done.
I1130 12:37:17.695209 30454 solver.cpp:60] Solver scaffolding done.
I1130 12:37:17.695646 30454 caffe.cpp:251] Starting Optimization
I1130 12:37:17.695659 30454 solver.cpp:279] Solving
I1130 12:37:17.695664 30454 solver.cpp:280] Learning Rate Policy: step
I1130 12:37:17.696722 30454 solver.cpp:337] Iteration 0, Testing net (#0)
I1130 12:37:17.696758 30454 net.cpp:693] Ignoring source layer train-data
I1130 12:37:17.708189 30454 blocking_queue.cpp:50] Data layer prefetch queue empty
I1130 12:37:17.879700  7902 net.cpp:150] Setting up conv1
I1130 12:37:17.879740  7902 net.cpp:157] Top shape: 64 20 24 24 (737280)
I1130 12:37:17.879757  7902 net.cpp:165] Memory required for data: 4153600
I1130 12:37:17.879812  7902 layer_factory.hpp:77] Creating layer pool1
I1130 12:37:17.879838  7902 net.cpp:100] Creating Layer pool1
I1130 12:37:17.879848  7902 net.cpp:434] pool1 <- conv1
I1130 12:37:17.879859  7902 net.cpp:408] pool1 -> pool1
I1130 12:37:17.879951  7902 net.cpp:150] Setting up pool1
I1130 12:37:17.879961  7902 net.cpp:157] Top shape: 64 20 12 12 (184320)
I1130 12:37:17.879966  7902 net.cpp:165] Memory required for data: 4890880
I1130 12:37:17.879971  7902 layer_factory.hpp:77] Creating layer conv2
I1130 12:37:17.880017  7902 net.cpp:100] Creating Layer conv2
I1130 12:37:17.880023  7902 net.cpp:434] conv2 <- pool1
I1130 12:37:17.880048  7902 net.cpp:408] conv2 -> conv2
I1130 12:37:17.882946  7902 net.cpp:150] Setting up conv2
I1130 12:37:17.882962  7902 net.cpp:157] Top shape: 64 50 8 8 (204800)
I1130 12:37:17.882973  7902 net.cpp:165] Memory required for data: 5710080
I1130 12:37:17.882992  7902 layer_factory.hpp:77] Creating layer pool2
I1130 12:37:17.883018  7902 net.cpp:100] Creating Layer pool2
I1130 12:37:17.883024  7902 net.cpp:434] pool2 <- conv2
I1130 12:37:17.883031  7902 net.cpp:408] pool2 -> pool2
I1130 12:37:17.883092  7902 net.cpp:150] Setting up pool2
I1130 12:37:17.883100  7902 net.cpp:157] Top shape: 64 50 4 4 (51200)
I1130 12:37:17.883116  7902 net.cpp:165] Memory required for data: 5914880
I1130 12:37:17.883121  7902 layer_factory.hpp:77] Creating layer ip1
I1130 12:37:17.883137  7902 net.cpp:100] Creating Layer ip1
I1130 12:37:17.883154  7902 net.cpp:434] ip1 <- pool2
I1130 12:37:17.883163  7902 net.cpp:408] ip1 -> ip1
I1130 12:37:17.888459  7902 net.cpp:150] Setting up ip1
I1130 12:37:17.888475  7902 net.cpp:157] Top shape: 64 500 (32000)
I1130 12:37:17.888485  7902 net.cpp:165] Memory required for data: 6042880
I1130 12:37:17.888501  7902 layer_factory.hpp:77] Creating layer relu1
I1130 12:37:17.888532  7902 net.cpp:100] Creating Layer relu1
I1130 12:37:17.888537  7902 net.cpp:434] relu1 <- ip1
I1130 12:37:17.888545  7902 net.cpp:395] relu1 -> ip1 (in-place)
I1130 12:37:17.888859  7902 net.cpp:150] Setting up relu1
I1130 12:37:17.888872  7902 net.cpp:157] Top shape: 64 500 (32000)
I1130 12:37:17.888882  7902 net.cpp:165] Memory required for data: 6170880
I1130 12:37:17.888890  7902 layer_factory.hpp:77] Creating layer ip2
I1130 12:37:17.888911  7902 net.cpp:100] Creating Layer ip2
I1130 12:37:17.888928  7902 net.cpp:434] ip2 <- ip1
I1130 12:37:17.888936  7902 net.cpp:408] ip2 -> ip2
I1130 12:37:17.889917  7902 net.cpp:150] Setting up ip2
I1130 12:37:17.889932  7902 net.cpp:157] Top shape: 64 10 (640)
I1130 12:37:17.889941  7902 net.cpp:165] Memory required for data: 6173440
I1130 12:37:17.889955  7902 layer_factory.hpp:77] Creating layer loss
I1130 12:37:17.889972  7902 net.cpp:100] Creating Layer loss
I1130 12:37:17.889989  7902 net.cpp:434] loss <- ip2
I1130 12:37:17.889994  7902 net.cpp:434] loss <- label
I1130 12:37:17.890002  7902 net.cpp:408] loss -> loss
I1130 12:37:17.890019  7902 layer_factory.hpp:77] Creating layer loss
…
